model/keypoint_classifier/keypoint_classifier.tflite (tflite, 9912 bytes, 6 tensors)

arith.constant f4 [64]
0.1944577 0.0983067 0.07232887 -0.27096757 0.2725484 -0.015430172 0.09328333 0.09604056
0.077027805 0.2382492 0.21691674 0.06617349 0.23640889 0.1356981 0.037560828 -0.19481999
-0.040901322 0.3209509 -0.094576955 0.23662826 0.11113774 0.12729897 0.19976741 -0.08320095
-0.06294549 0.08374039 0.24528593 0.16628195 0.22844523 0.07915801 0.1607001 -0.046774797
0.016280774 -0.004102218 0.08678168 0.121530645 0.08703462 0.14688483 -0.115754455 -0.14312394
-0.0822399 0.17696276 -0.090239994 0.07170815 0.020073986 0.0965099 -0.1724245 0.13607289
0.10955642 -0.11868339 0.0016998637 0.041580714 0.17869683 -0.06785398 0.28882113 0.2653288
0.16065761 -0.022522992 0.30936942 0.10838888 0.38429192 -0.093059435 -0.24259736 0.14710398
00000000: eb1f 473e 0655 c93d 2921 943d 43bc 8abe
00000010: 778b 8b3e d5ce 7cbc 550b bf3d eab0 c43d
00000020: c1c0 9d3d 99f7 733e 6c1f 5e3e f785 873d
00000030: 2c15 723e 71f4 0a3e 62d9 193d e47e 47be
00000040: 2588 27bd ad53 a43e 90b1 c1bd ae4e 723e
00000050: 2f9c e33d a95a 023e d48f 4c3e 4265 aabd
00000060: 91e9 80bd 1580 ab3d 3c2c 7b3e d145 2a3e
00000070: 8ced 693e 981d a23d 918e 243e ee96 3fbd
00000080: 425f 853c e66b 86bb 98ba b13d 0fe5 f83d
00000090: 353f b23d fa68 163e ac10 edbd 158f 12be
000000a0: 656d a8bd ba35 353e bfcf b8bd b9db 923d
000000b0: 3372 a43c fca6 c53d 0c90 30be b156 0b3e
000000c0: 1e5f e03d 4710 f3bd f6cd de3a 8a50 2a3d
000000d0: 4dfc 363e 07f7 8abd 5de0 933e 2dd9 873e
000000e0: 6e83 243e 2382 b8bc ab65 9e3e fdfa dd3d
000000f0: e9c1 c43e f295 bebd 716b 78be 6da2 163e

arith.constant1 f4 [32]
0.08109369 0.082140334 -0.14115648 0.08403321 0.1429352 0.17788754 0.24545537 0.041195434
0.0037094783 -0.026746104 -0.027961524 -0.1231793 -0.018359726 0.14756206 0.025130734 0.12332639
0.024374023 0.12779522 -0.20218176 0.08408947 -0.048282616 0.14725278 -0.12402358 0.28181276
0.29009092 -0.21747883 -0.0063106613 0.20491226 -0.07403161 -0.035798136 -0.12971587 0.02776142
00000000: 7314 a63d 3139 a83d 538b 10be 9b19 ac3d
00000010: 9b5d 123e 2728 363e a758 7b3e 8bbc 283d
00000020: b81a 733b a51a dbbc 910f e5bc 6e45 fcbd
00000030: 2367 96bc 821a 173e f8de cd3c 8c92 fc3d
00000040: 08ac c73c c0dc 023e bc08 4fbe 1a37 ac3d
00000050: fec3 45bd 6fc9 163e 1300 febd c349 903e
00000060: cc86 943e c5b2 5ebe aac9 cebb 85d4 513e
00000070: e29d 97bd 11a1 12bd 3dd4 04be eb6b e33c

arith.constant2 f4 [11]
0.03548741 -0.116979435 -0.19008562 0.12629099 0.07848345 0.18929975 -0.17251971 -0.09493413
-0.10341421 0.15369827 0.033565957
00000000: 3f5b 113d ea92 efbd cea5 42be 6d52 013e
00000010: eebb a03d cbd7 413e 02a9 30be d36c c2bd
00000020: d4ca d3bd 1463 1d3e 757c 093d

arith.constant3 f4 [11, 32]
0.60733145 -0.6009293 -0.36491454 -0.5614581 0.23069516 0.2985577 0.20918743 0.40196812
0.5772623 0.4613817 -0.36484334 -0.51305264 -0.055804964 -0.5438347 0.10605305 0.65013725
-0.077657886 0.72422445 -0.0526507 -0.3426976 -0.5815076 -0.7216809 -0.8877902 -0.18192339
-0.8285243 -0.983386 -0.7497281 -0.6420893 0.23431303 0.059594747 0.30840063 -0.49453965
-0.6752167 -0.1301149 0.20799369 0.24167745 0.39997703 -0.5603838 0.6918656 -0.34272394
-0.701584 -0.6871313 0.104756124 0.34949267 0.5208167 -0.116192326 0.35228968 -0.10030793
-0.72678417 0.113087185 0.39837727 0.26393062 -0.3339646 -0.32543728 -0.9193745 -0.09804267
0.016858386 0.45346153 -0.60191244 0.18417233 -0.23218162 -0.29804477 -0.67412585 0.43309632
0.43619347 0.13335438 0.66944605 -0.28782824 -0.2775935 -0.61261594 -0.14715317 0.37161523
0.65692943 -0.07529553 -0.09538819 0.7059864 0.34266675 -0.21365932 0.56999415 -0.6163174
0.4384917 -0.71722853 0.06782448 -0.96472293 0.114983626 -0.25858137 -0.9035201 -0.35743833
0.08854974 -0.059723906 -0.6332774 -0.4407384 -0.5612827 -0.04055947 0.94542384 -0.15227075
-0.28352413 0.5006744 0.010000135 0.3474259 0.094624236 0.24668515 0.55410993 -0.396543
-0.0001636789 -0.28626484 -0.38209364 -0.310232 0.14571095 -0.3975127 -0.7621202 -0.41055414
-0.12635182 -0.80924433 0.3598984 0.5287653 0.015595799 0.010392199 -0.21076137 0.5789041
-0.8256292 -0.18025059 0.7242522 -0.36215365 0.5805263 -0.1674563 -0.15718427 0.2910151
-0.7643124 -0.48554695 0.31966716 0.36549506 -0.7479384 -0.60550225 -0.7526336 -0.18200563
-0.3000353 -0.3052525 -0.17702702 -0.5060086 -0.20254406 -0.034821022 0.008511771 -0.028164834
0.37321976 0.7945674 0.51381624 -0.1832326 0.14018683 0.5736189 -0.26746404 -0.49642733
-0.1571141 -0.34118477 0.18260917 -0.113103196 0.49435666 0.5295602 0.057859577 -0.35774496
0.059334807 0.6095876 -0.5464397 -0.050445817 -0.40309063 0.07457655 0.4413685 0.29158297
-0.6185809 -0.61110204 0.16107816 -0.31917635 -0.43444747 0.32839957 -0.82324076 0.60594684
-0.1550704 -0.20782794 -0.3913719 -0.7684375 -0.35276994 0.44567317 -0.08376538 0.47674355
0.6344026 -0.045809597 0.39777467 0.340155 -0.8007824 0.36949235 -0.9493361 -0.33473557
0.5062186 0.36293283 -0.84911686 -0.56440616 0.3335937 0.39038035 0.04705459 -0.49683094
-0.36207098 0.5437092 0.34391156 -0.13401903 -0.08853999 0.07316912 -0.42469215 0.076822855
-0.13036753 -1.0645779 0.46649107 0.49635646 0.6604532 -0.6420953 0.8641659 -0.16188772
-0.73389155 0.07873981 0.06281703 0.34611845 0.49730137 -0.017827755 0.44622308 -0.42619574
-0.27874893 -0.4073006 0.0075781387 -0.49952784 -0.08636457 0.43134934 -0.97778326 -0.7495384
0.5377051 0.5803283 -0.016178593 0.3356589 0.21552013 -0.47085747 0.42826 0.021614013
0.15081832 0.96668774 -0.5792103 0.054635815 0.51292354 0.28760445 1.0796301 -0.7397966
-0.5585069 0.5437125 0.20682403 -0.6791707 0.1872599 0.09549402 0.05472874 0.6874805
00000000: 137a 1b3f 81d6 19bf 14d6 babe b8bb 0fbf
00000010: 5a3b 6c3e 8edc 983e 3b35 563e c4ce cd3e
00000020: 76c7 133f 393a ec3e bfcc babe 6b57 03bf
00000030: bf93 64bd c038 0bbf 5732 d93d 656f 263f
00000040: 190b 9fbd c666 393f 43a8 57bd 0f76 afbe
00000050: afdd 14bf 14c0 38bf 3846 63bf 204a 3abe
00000060: 2b1a 54bf 2fbf 7bbf 2eee 3fbf f75f 24bf
00000070: c1ef 6f3e 9f19 743d b0e6 9d3e 4d34 fdbe
00000080: 00db 2cbf d73c 05be 4cfc 543e 4b7a 773e
00000090: cac9 cc3e 5075 0fbf 1b1e 313f 8379 afbe
000000a0: 029b 33bf d6e7 2fbf 618a d63d b4f0 b23e
000000b0: 3e54 053f 3ef6 edbd 505f b43e 3e6e cdbd
000000c0: 870e 3abf 419a e73d 1bf8 cb3e ea21 873e
000000d0: 68fd aabe b79f a6be 215c 6bbf 98ca c8bd
000000e0: 991a 8a3c 1c2c e83e ef16 1abf ac97 3c3e
000000f0: 05c1 6dbe 5399 98be 8393 2cbf cdbe dd3e
00000100: c054 df3e 0d8e 083e d160 2b3f 395e 93be
00000110: bc20 8ebe 66d4 1cbf 52af 16be 5a44 be3e
00000120: 872c 283f 8b34 9abd e25a c3bd 86bb 343f
00000130: 0472 af3e 82c9 5abe 23eb 113f fac6 1dbf
00000140: fc81 e03e 4a9c 37bf 90e7 8a3d 15f8 76bf
00000150: 897c eb3d c764 84be 184d 67bf 2802 b7be
00000160: 9159 b53d 0ea1 74bd 781e 22bf 77a8 e1be
00000170: 39b0 0fbf b021 26bd 4c07 723f ddec 1bbe
00000180: 132a 91be 332c 003f 9bd7 233c cfe1 b13e
00000190: 5aca c13d 089b 7c3e 26da 0d3f af07 cbbe
000001a0: 38a1 2bb9 4e91 92be c7a1 c3be bbd6 9ebe
000001b0: 4035 153e c986 cbbe 4f1a 43bf 2734 d2be
000001c0: 5f62 01be a32a 4fbf 9a44 b83e 2a5d 073f
000001d0: 8685 7f3c 0b44 2a3c d4d1 57be 0f33 143f
000001e0: 6f5c 53bf 9c93 38be 9868 393f 346c b9be
000001f0: 5f9d 143f aa79 2bbe eaf4 20be eeff 943e
00000200: faa9 43bf 9c99 f8be 6aab a33e 2b22 bb3e
00000210: e478 3fbf 3202 1bbf 98ac 40bf af5f 3abe
00000220: 3a9e 99be 0e4a 9cbe 9246 35be c889 01bf
00000230: b667 4fbe 7da0 0ebd f574 0b3c f0b9 e6bc
00000240: a916 bf3e c568 4b3f 7689 033f 54a1 3bbe
00000250: 238d 0f3e b0d8 123f 0cf1 88be b92b febe
00000260: 85e2 20be c5af aebe e6fd 3a3e a6a2 e7bd
00000270: 511c fd3e 4291 073f 2afe 6c3d 592a b7be
00000280: 0e09 733d ef0d 1c3f 79e3 0bbf 46a0 4ebd
00000290: e561 cebe 97bb 983d 0dfb e13e 5d4a 953e
000002a0: 515b 1ebf 2f71 1cbf acf1 243e 156b a3be
000002b0: e66f debe fd23 a83e e8bf 52bf 551f 1b3f
000002c0: c6ca 1ebe d9d0 54be e661 c8be 52b8 44bf
000002d0: 439e b4be 462f e43e 2f8d abbd bb17 f43e
000002e0: 3568 223f d8a2 3bbd 1fa9 cb3e cc28 ae3e
000002f0: 1300 4dbf 1a2e bd3e b107 73bf 7662 abbe
00000300: 8b97 013f 55d2 b93e b95f 59bf ec7c 10bf
00000310: cbcc aa3e efdf c73e 50bc 403d a060 febe
00000320: 5e61 b9be 8730 0b3f 2d15 b03e 493c 09be
00000330: 7454 b5bd b1d9 953d 4071 d9be 4d55 9d3d
00000340: 117f 05be 1744 88bf ebd7 ee3e 6f22 fe3e
00000350: 7613 293f 5c60 24bf fa39 5d3f e5c5 25be
00000360: 51e0 3bbf 5642 a13d 37a6 803d 7036 b13e
00000370: 499e fe3e 830b 92bc 5a77 e43e 5436 dabe
00000380: 2eb8 8ebe b489 d0be 0952 f83b 1dc2 ffbe
00000390: e8df b0bd d2d9 dc3e 0150 7abf c0e1 3fbf
000003a0: 0ba7 093f 6590 143f f888 84bc 7cdb ab3e
000003b0: 4fb1 5c3e 3b14 f1be e544 db3e df0f b13c
000003c0: 1e70 1a3e d978 773f 2047 14bf cec9 5f3d
000003d0: f54e 033f e440 933e 5231 8a3f 4f63 3dbf
000003e0: 4ffa 0ebf be30 0b3f aec9 533e 22de 2dbf
000003f0: 0fc1 3f3e 5e92 c33d 3e2b 603d b9fe 2f3f

tfl.pseudo_qconst i1 [32, 64]
95 83 -17 22 72 45 33 -22
24 -111 -57 68 -5 26 60 -3
-74 101 17 -82 76 90 -65 -11
-70 24 -47 -71 75 -72 88 15
-94 -41 1 67 10 71 50 62
-11 14 -46 -13 -102 -13 -40 -52
13 -82 21 39 57 60 7 -29
127 33 -8 -7 -50 -59 18 71
6 116 14 -127 3 23 56 24
-59 45 47 55 65 38 26 -60
-59 19 21 55 83 111 87 -6
-27 1 26 34 48 -17 -32 -17
-2 -81 -45 34 -67 51 -11 5
56 121 -47 -31 -71 20 32 36
-51 -103 29 -3 93 -21 16 61
-26 -41 62 19 45 105 -91 97
-21 65 79 96 -31 96 -111 33
43 12 -43 -45 33 1 65 87
19 23 -11 34 -24 -99 -12 2
3 118 -95 -30 -76 22 26 2
60 46 -13 -40 29 -62 44 109
-45 86 43 69 23 4 68 -83
71 15 90 18 -41 -14 127 -94
29 23 113 32 -69 -41 78 -44
-4 66 -31 -15 -49 14 -36 76
32 18 60 -93 33 -20 -56 72
0 27 34 55 -27 -104 88 35
28 -11 -9 127 -50 41 -33 -16
59 35 -47 -84 44 -56 -86 29
20 -17 37 74 0 37 63 60
14 54 32 36 -60 -91 77 -20
-94 -69 -64 50 -14 35 41 29
00000000: 5f53 ef16 482d 21ea 1891 c744 fb1a 3cfd
00000010: b665 11ae 4c5a bff5 ba18 d1b9 4bb8 580f
00000020: a2d7 0143 0a47 323e f50e d2f3 9af3 d8cc
00000030: 0dae 1527 393c 07e3 7f21 f8f9 cec5 1247
00000040: 0674 0e81 0317 3818 c52d 2f37 4126 1ac4
00000050: c513 1537 536f 57fa e501 1a22 30ef e0ef
00000060: feaf d322 bd33 f505 3879 d1e1 b914 2024
00000070: cd99 1dfd 5deb 103d e6d7 3e13 2d69 a561
00000080: eb41 4f60 e160 9121 2b0c d5d3 2101 4157
00000090: 1317 f522 e89d f402 0376 a1e2 b416 1a02
000000a0: 3c2e f3d8 1dc2 2c6d d356 2b45 1704 44ad
000000b0: 470f 5a12 d7f2 7fa2 1d17 7120 bbd7 4ed4
000000c0: fc42 e1f1 cf0e dc4c 2012 3ca3 21ec c848
000000d0: 001b 2237 e598 5823 1cf5 f77f ce29 dff0
000000e0: 3b23 d1ac 2cc8 aa1d 14ef 254a 0025 3f3c
000000f0: 0e36 2024 c4a5 4dec a2bb c032 f223 291d

sequential_31_1/dense_102_1/MatMul i1 [64, 42]
-25 10 -46 32 14 -6 -8 36
15 21 19 -29 -18 15 27 64
30 127 27 -30 -11 12 -18 -13
-6 -18 -8 -37 1 -12 -15 -3
-31 -52 6 3 27 -38 54 9
47 19 -15 23 -40 48 -43 63
-107 9 -127 74 -39 2 -37 10
18 14 58 -1 -39 -11 -22 39
33 20 47 -25 -24 -43 1 13
33 -11 40 -69 -19 -27 32 -25
3 4 8 -42 -12 -3 -5 -39
-12 -23 80 7 78 46 -78 -48
-13 -33 -29 17 -93 -50 -51 -26
20 43 5 -52 -16 -59 16 82
83 85 71 28 57 -49 46 127
116 109 34 14 -51 -60 14 -4
-58 -33 -38 -53 -53 -23 -39 -51
-52 -72 -47 30 58 4 65 -5
-67 -23 -48 -5 34 69 38 42
-95 -29 -10 8 21 29 -11 0
-29 -42 -33 -2 -111 -28 -127 -75
-5 -36 -1 8 82 -83 46 -34
1 -115 0 -43 -45 -9 23 -31
-41 -7 -46 -41 15 53 34 19
82 86 -40 -8 -25 19 73 69
90 11 -81 48 -63 12 -117 -49
-127 -13 -46 -10 -76 43 -2 53
-116 39 -116 57 36 17 -23 69
-21 -27 -42 62 97 -33 2 18
46 10 -36 28 55 -63 -16 -68
-27 -3 -20 27 110 -127 23 -35
-29 -21 -99 -60 10 21 -91 2
00000000: e70a d220 0efa f824 0f15 13e3 ee0f 1b40
00000010: 1e7f 1be2 f50c eef3 faee f8db 01f4 f1fd
00000020: e1cc 0603 1bda 3609 2f13 f117 d830 d53f
00000030: 9509 814a d902 db0a 120e 3aff d9f5 ea27
00000040: 2114 2fe7 e8d5 010d 21f5 28bb ede5 20e7
00000050: 0304 08d6 f4fd fbd9 f4e9 5007 4e2e b2d0
00000060: f3df e311 a3ce cde6 142b 05cc f0c5 1052
00000070: 5355 471c 39cf 2e7f 746d 220e cdc4 0efc
00000080: c6df dacb cbe9 d9cd ccb8 d11e 3a04 41fb
00000090: bde9 d0fb 2245 262a a1e3 f608 151d f500
000000a0: e3d6 dffe 91e4 81b5 fbdc ff08 52ad 2ede
000000b0: 018d 00d5 d3f7 17e1 d7f9 d2d7 0f35 2213
000000c0: 5256 d8f8 e713 4945 5a0b af30 c10c 8bcf
000000d0: 81f3 d2f6 b42b fe35 8c27 8c39 2411 e945
000000e0: ebe5 d63e 61df 0212 2e0a dc1c 37c1 f0bc
000000f0: e5fd ec1b 6e81 17dd e3eb 9dc4 0a15 a502
