model/keypoint_classifier/keypoint_classifier.tflite (tflite, 11688 bytes, 8 tensors)

arith.constant f4 [64]
-0.5546224 -0.15857852 -0.16886526 -0.35513982 -0.35823378 -0.3798521 -0.45953003 -0.42276764
-0.21544984 -0.0583377 -0.20744231 0.12260281 -0.1796369 -0.24687026 -0.23931235 -0.09525709
0.1375043 -0.47243202 -0.24803427 -0.44422293 -0.25809354 -0.29744866 0.017487511 0.3656743
-0.45629433 -0.1264309 -0.14148013 -0.4605538 -0.27258804 -0.114319734 -0.53849643 -0.15546839
-0.3688369 0.19867143 -0.52959573 -0.09714153 -0.75801516 -0.010384457 -0.41786218 -0.027527492
-0.49873567 -0.062768325 -0.23903042 -0.45078826 -0.38038158 0.38082638 -0.05107319 -0.109098464
-0.21949738 -0.08193852 -0.11301456 0.10309088 -0.063047685 0.23937763 -0.17023101 -0.2493511
-0.13884845 -0.22981992 -0.29267868 -0.1463442 -0.382608 0.27498534 -0.2790589 -0.6372396
00000000: bcfb 0dbf 6862 22be 04eb 2cbe e3d4 b5be
00000010: 6b6a b7be f97b c2be 8547 ebbe 0075 d8be
00000020: e29e 5cbe 83f3 6ebd c26b 54be 2f17 fb3d
00000030: bcf2 37be 8fcb 7cbe 4c0e 75be 2616 c3bd
00000040: edcd 0c3e 9ce2 f1be b2fc 7dbe 3071 e3be
00000050: d624 84be 314b 98be f841 8f3c a939 bb3e
00000060: 699f e9be 1a77 01be 2be0 10be b5cd ebbe
00000070: a990 8bbe 7720 eabd e7da 09bf 1b33 1fbe
00000080: 31d8 bcbe 8670 4b3e 9693 07bf 23f2 c6bd
00000090: 480d 42bf 9223 2abc 08f2 d5be 5681 e1bc
000000a0: 485a ffbe ae8c 80bd 64c4 74be b8cd e6be
000000b0: 60c1 c2be adfb c23e 1f32 51bd 046f dfbd
000000c0: ecc3 60be 62cf a7bd 2d74 e7bd 5021 d33d
000000d0: 251f 81bd 691f 753e 0a51 2ebe e555 7fbe
000000e0: 4a2e 0ebe ea55 6bbe fbd9 95be 41db 15be
000000f0: 32e5 c3be e1ca 8c3e cfe0 8ebe 2222 23bf

arith.constant1 f4 [32]
-0.09318708 0.16157909 0.07926335 -0.078440435 0.018770179 0.38480672 0.010479419 0.17672245
0.3890363 0.35632366 -0.04218512 0.17709701 -0.22396156 -0.07618699 -0.23205762 0.27567658
-0.21855658 -0.008531904 -0.18203767 0.0736427 -0.18384574 0.39894712 0.029848507 -0.1451493
-0.30421856 0.20536262 -0.004992725 -0.08294471 0.48687723 -0.10210631 -0.35679388 0.024920484
00000000: ded8 bebd fd74 253e d354 a23d 61a5 a0bd
00000010: ebc3 993c 6305 c53e deb1 2b3c bbf6 343e
00000020: c42f c73e 0e70 b63e 4eca 2cbd eb58 353e
00000030: 2e56 65be ed07 9cbd 83a0 6dbe 7b25 8d3e
00000040: 4ccd 5fbe 66c9 0bbc 1568 3abe fcd1 963d
00000050: 0f42 3cbe cc42 cc3e db84 f43c 05a2 14be
00000060: 89c2 9bbe 944a 523e 039a a3bb ebde a9bd
00000070: f947 f93e 1d1d d1bd b0ad b6be 0b26 cc3c

arith.constant2 f4 [16]
0.04753393 0.199276 -0.059456754 0.20752311 0.40173736 0.08673862 0.044889268 -0.13270307
0.07241575 0.16440253 0.3335096 -0.05331791 -0.023333475 0.30938166 0.5041514 0.34717926
00000000: f0b2 423d 020f 4c3e ed88 73bd f080 543e
00000010: 85b0 cd3e 05a4 b13d cfdd 373d 50e3 07be
00000020: b54e 943d 2359 283e c5c1 aa3e e163 5abd
00000030: d825 bfbc 4667 9e3e 1110 013f 7bc1 b13e

arith.constant3 f4 [11]
0.2524092 -0.071842186 0.27584955 -0.3781478 0.118580386 0.015908211 -0.32683638 -0.25159824
-0.30436134 0.65447134 0.19708106
00000000: c73b 813e ff21 93bd 273c 8d3e 979c c1be
00000010: 46da f23d f051 823c 1957 a7be 7cd1 80be
00000020: 40d5 9bbe 6f8b 273f 9ecf 493e

arith.constant4 f4 [11, 16]
-1.2589681 -1.1593918 -0.27380377 -0.82496274 0.29420564 -1.3123685 0.6190392 0.30847827
0.37217098 -1.5893104 -0.4113885 -1.0336369 0.49970397 0.4725827 -0.39771062 -0.7297722
-0.33877593 0.37283483 0.34469858 0.50786394 -0.9803634 -0.86748266 -1.1004866 -0.58148485
0.27486804 0.06578521 -0.6789015 -0.07038254 -0.84156615 -0.82577956 -1.0008138 0.8193662
0.05077357 -0.2981624 0.51199317 0.45108938 -0.59156823 -0.74153566 -0.11635278 -0.44425592
-0.1299752 0.10699513 -0.72780186 -0.647358 0.42097425 0.2423506 0.14400971 -0.12765607
0.2231547 0.2640672 -0.50067884 0.20467229 -0.14656283 0.034102928 0.22098552 0.39232475
0.21040784 0.19953196 0.2393796 0.089209154 -0.7608914 -0.7036965 -0.5960928 -0.1199035
0.26249313 0.29884294 -0.84148717 -1.475517 -1.1578233 0.069192395 -0.31653038 0.44335765
-0.8272758 0.2604475 -0.06580085 0.15243286 -0.46849617 -0.44850343 -0.42800805 0.09264274
-0.78643006 -1.3588647 -0.86379105 0.16036996 0.2805027 -0.034898646 -0.64313567 0.45658842
-1.0714601 0.2516185 0.50818616 -1.2808828 -1.1703407 -0.33338872 0.24009295 0.8269863
0.120828 0.25055328 0.13920563 0.33834076 0.27464643 -0.23421656 0.6306487 -0.6703192
0.1995787 -1.1123254 0.38696894 0.117008135 -0.27872276 0.3290686 -0.081847504 -0.91821676
0.076175645 0.07727217 0.32169658 -0.3197815 -0.49067947 -0.69172764 0.63345045 0.19724788
0.32447758 -0.52233756 -0.0096826805 0.1510897 0.38778248 0.5344934 -0.8287427 -0.47899988
0.25685787 -0.3095213 0.44121805 0.37186486 -0.19878325 -0.011113031 -0.17255077 0.25679356
-0.53411496 0.06384249 -0.6067452 -0.006774383 0.3803007 -0.608721 0.23994984 -0.47650853
-1.2068456 -0.6901272 0.356885 0.4262587 0.3534292 -0.95684475 -0.107682735 -0.5251248
-0.06327434 -0.23113224 0.4774949 -1.1345788 0.033508126 0.49494195 0.34666333 0.15836257
0.19820084 -0.35110393 -0.6066898 0.33622053 0.30540052 -0.037466314 -0.60128653 -0.9142676
-1.137008 -0.787269 0.4236052 0.1662694 -0.38460794 0.4735495 0.2645896 -0.8425182
00000000: de25 a1bf f366 94bf 0230 8cbe c230 53bf
00000010: 1fa2 963e b1fb a7bf 5a79 1e3f ddf0 9d3e
00000020: 328d be3e 866e cbbf 83a1 d2be 374e 84bf
00000030: 33d9 ff3e 5cf6 f13e baa0 cbbe 5ad2 3abf
00000040: 0a74 adbe 35e4 be3e 557c b03e 5f03 023f
00000050: 19f9 7abf 5813 5ebf bfdc 8cbf 31dc 14bf
00000060: 81bb 8c3e 65ba 863d 7dcc 2dbf b924 90bd
00000070: e170 57bf 4a66 53bf ab1a 80bf fcc1 513f
00000080: f2f7 4f3d bea8 98be fc11 033f 30f5 e63e
00000090: 0471 17bf 48d5 3dbf 5e4a eebd 8375 e3be
000000a0: 3818 05be 4320 db3d 3951 3abf 41b9 25bf
000000b0: f089 d73e c12a 783e 4877 133e 46b8 02be
000000c0: aa82 643e d133 873e 7d2c 00bf 9d95 513e
000000d0: 9114 16be 83af 0b3d 074a 623e cade c83e
000000e0: 2775 573e 1b52 4c3e ed1f 753e 4ab3 b63d
000000f0: c7c9 42bf 7425 34bf 8a99 18bf f78f f5bd
00000100: 8065 863e f101 993e b46b 57bf bedd bcbf
00000110: 8e33 94bf beb4 8d3d 4510 a2be c6ff e23e
00000120: 59c8 53bf 6059 853e 99c2 86bd 5c17 1c3e
00000130: bbde efbe 3ea2 e5be df23 dbbe 7abb bd3d
00000140: 7b53 49bf 47ef adbf 6921 5dbf 0638 243e
00000150: 0d9e 8f3e e2f1 0ebd 8aa4 24bf f5c5 e93e
00000160: 9b25 89bf 24d4 803e 7d18 023f f8f3 a3bf
00000170: b9cd 95bf edb1 aabe edda 753e 60b5 533f
00000180: ac74 f73d 8548 803e ec8b 0e3e 003b ad3e
00000190: 759e 8c3e 77d6 6fbe 3172 213f 0a9a 2bbf
000001a0: 5c5e 4c3e ae60 8ebf cb20 c63e f6a1 ef3d
000001b0: c0b4 8ebe ae7b a83e aa9f a7bd 4110 6bbf
000001c0: fa01 9c3d df40 9e3d 6ab5 a43e 67ba a3be
000001d0: 573a fbbe 1015 31bf cf29 223f 59fb 493e
000001e0: ed21 a63e eab7 05bf 1ba4 1ebc 42b7 1a3e
000001f0: 6d8b c63e 8fd4 083f 7b28 54bf 793f f5be
00000200: e082 833e 9379 9ebe 55e7 e13e 1265 be3e
00000210: d68d 4bbe 6e13 36bc 26b1 30be 727a 833e
00000220: c2bb 08bf dabf 823d a753 1bbf a5fb ddbb
00000230: c6b6 c23e 24d5 1bbf 69b5 753e edf8 f3be
00000240: eb79 9abf 2dac 30bf a1b9 b63e 953e da3e
00000250: acf4 b43e c7f3 74bf c488 dcbd 946e 06bf
00000260: fa95 81bd eead 6cbe 367a f43e e139 91bf
00000270: d13f 093d 0869 fd3e db7d b13e cc29 223e
00000280: 29f5 4a3e e5c3 b3be 0650 1bbf 1925 ac3e
00000290: 755d 9c3e 4776 19bd eaed 19bf 710d 6abf
000002a0: 7a89 91bf 768a 49bf c8e2 d83e 8742 2a3e
000002b0: 55eb c4be 1475 f23e 4a78 873e 46af 57bf

arith.constant5 f4 [16, 32]
-0.13936791 -0.22274259 0.11322201 -0.27925938 -0.12992188 -0.5321054 0.77261484 -0.2352422
-0.04121278 -0.17151476 0.019261671 -0.025483875 0.6451519 0.95680404 -0.16354083 -0.44531253
0.242325 0.7572758 0.07314889 0.005173098 -0.12519029 0.3848734 1.0126691 0.00056820386
0.05977807 0.055333637 -0.0018114824 0.3952253 -0.25485262 0.23811504 0.7670669 -0.14683548
0.45037398 -0.5260671 -0.088024884 0.26027402 0.20345443 -0.33089602 -0.8458183 -0.24664366
0.21760632 0.16045474 -0.31769067 -0.23455456 -0.20271127 0.19068973 0.22943203 -0.0068186442
0.0010041092 0.25790322 -0.06111407 -0.8199165 -0.09007698 -0.18975818 0.30187517 0.5136854
0.12166463 0.22941004 0.3320194 0.97588193 -0.7862216 -0.0626536 0.57659674 0.07729371
0.49375015 0.3947426 -0.055676077 0.41759595 -0.4605456 -0.21519023 -0.056451704 -0.34492904
-0.25811172 -0.5265078 0.38338768 0.52622455 0.4914173 0.10606176 0.66560245 0.27636886
-0.08751407 0.09942429 0.5200682 -0.08115649 0.4177306 -0.62045133 0.07155513 -0.014998192
0.6960353 0.18379493 -0.42277306 -0.5813479 -0.21256521 0.057852045 0.3378317 -0.5989082
0.15776068 0.37458053 -0.4741266 0.54858065 -0.014770653 0.038708128 0.19209494 -0.49530882
0.3021657 0.01743558 0.11443267 0.036071166 -0.0112315575 -0.04647632 0.46010032 -0.19332086
0.051794462 -0.02429226 0.8868212 0.010676326 0.3276151 -0.12267097 -0.066351384 -0.32211944
-0.32859105 0.13182832 -0.2908429 -0.07978722 0.0068823323 0.9123712 0.034974102 -0.04794279
-0.3127641 0.37973058 -0.16290767 0.08716952 0.043137044 0.57091886 -0.3403563 -0.10224163
1.1830595 0.19954637 -0.0149267 -0.10455308 -0.56671935 -0.1318238 -0.65273774 0.21573178
0.014214059 0.09971894 0.11640595 0.57231176 -0.47115466 -0.106852986 -0.09584077 -0.26132393
-0.8136463 0.7644438 -0.0138021745 -0.17356695 0.70899755 0.67747235 0.030147884 0.06759764
-0.791289 0.0665949 -0.557673 -0.38496825 0.35088524 -1.1645637 0.45404354 0.22792736
0.046389308 0.53502125 -0.13359441 -0.64083123 -0.00695182 0.31720084 -0.7947847 -0.5643763
0.8808992 0.5993845 0.3347954 0.38692063 -0.8087975 0.81447124 0.23312137 -0.5618308
-0.09329554 0.052885123 -0.32648832 -0.2867387 -0.06075174 0.0834384 0.6630447 0.613607
-0.017052535 -0.25101274 0.8715097 0.27293086 -0.18118382 -0.046173863 -0.44310975 0.5515016
0.05646454 -0.525091 0.46492833 0.03831383 -0.3121283 0.12383881 -0.40986982 0.476413
-0.5279004 0.20414318 -0.19452034 -0.243394 -0.073013715 -0.70808774 0.029461358 0.5026211
-0.29690978 0.27981985 0.7897307 -0.28783223 -0.4426318 0.06881771 0.35326254 0.13054286
-0.39431986 0.26695448 0.34216946 -0.111436814 1.0937364 0.086321354 -0.37859118 0.6494498
-0.45563897 0.12407103 0.12763141 -0.002034779 0.18378787 0.13354243 -0.46032777 0.10588373
0.53568333 -0.036479536 0.03453748 0.097230524 -0.12526874 0.36009443 -0.06950754 0.13317607
0.3764175 -0.5974972 0.21868177 0.32424733 0.27721128 -0.06690971 0.3115737 0.7571709
00000000: 76b6 0ebe a216 64be f1e0 e73d 16fb 8ebe
00000010: 3e0a 05be 0f38 08bf 16ca 453f 55e3 70be
00000020: bbce 28bd 91a1 2fbe a7ca 9d3c 8fc3 d0bc
00000030: ad28 253f 1cf1 743f 3f77 27be 0100 e4be
00000040: 0b24 783e d4dc 413f 16cf 953d 1783 a93b
00000050: e231 00be 200e c53e 249f 813f 84f3 143a
00000060: d9d9 743d 86a5 623d 436f edba f85a ca3e
00000070: 0b7c 82be 6ed4 733e 7f5e 443f 0a5c 16be
00000080: 6b97 e63e 55ac 06bf 6446 b4bd a342 853e
00000090: 5c56 503e 346b a9be 8c87 58bf 2890 7cbe
000000a0: 31d4 5e3e 3f4e 243e 5aa8 a2be 122f 70be
000000b0: 8b93 4fbe 2b44 433e 3bf0 6a3e ef6e dfbb
000000c0: 509c 833a e40b 843e bf52 7abd 0ce6 51bf
000000d0: 487a b8bd f84f 42be 628f 9a3e e380 033f
000000e0: 4e2b f93d 77ea 6a3e 72fe a93e 66d3 793f
000000f0: d245 49bf 8850 80bd d89b 133f 2a4c 9e3d
00000100: d2cc fc3e b41b ca3e 990c 64bd 23cf d53e
00000110: a2cc ebbe d45a 5cbe e739 67bd 8a9a b0be
00000120: 3827 84be 37c9 06bf 644b c43e a7b6 063f
00000130: 0c9b fb3e e836 d93d ec64 2a3f 3880 8d3e
00000140: 943a b3bd f69e cb3d 3123 053f 6035 a6bd
00000150: c9e0 d53e e6d5 1ebf 7f8b 923d faba 75bc
00000160: 5f2f 323f bd34 3c3e b675 d8be 37d3 14bf
00000170: b2aa 59be 44f6 6c3d 47f8 ac3e 0c52 19bf
00000180: 048c 213e 05c9 bf3e b9c0 f2be c86f 0c3f
00000190: 9c00 72bc 6a8c 1e3d 89b4 443e 1e99 fdbe
000001a0: 76b5 9a3e 10d5 8e3c ad5b ea3d 5cbf 133d
000001b0: 9104 38bc f45d 3ebd 4592 eb3e e7f5 45be
000001c0: 6e26 543d 9000 c7bc b706 633f c2eb 2e3c
000001d0: 2bbd a73e eb3a fbbd 3ce3 87bd d7ec a4be
000001e0: 163d a8be 01fe 063e 5ce9 94be 7b67 a3bd
000001f0: 3085 e13b 2991 693f 0141 0f3d a95f 44bd
00000200: 9e22 a0be 0c6c c23e 45d1 26be ef85 b23d
00000210: 78b0 303d bd27 123f 2e43 aebe 0f64 d1bd
00000220: 7e6e 973f e255 4c3e 1e8f 74bc ed1f d6bd
00000230: 8514 11bf d1fc 06be d219 27bf cbe8 5c3e
00000240: 16e2 683c 7239 cc3d 3e66 ee3d 0683 123f
00000250: 2f3b f1be bdd5 dabd 2a48 c4bd 40cc 85be
00000260: 204b 50bf 97b2 433f 8422 62bc 89bb 31be
00000270: dd80 353f d46e 2d3f b2f8 f63c a270 8a3d
00000280: ea91 4abf e862 883d a8c3 0ebf 8f1a c5be
00000290: 3ba7 b33e 6c10 95bf 6578 e83e ca65 693e
000002a0: b702 3e3d 27f7 083f f9cc 08be 840d 24bf
000002b0: 18cc e3bb 2668 a23e 0377 4bbf f77a 10bf
000002c0: 9c82 613f 4371 193f 4d6a ab3e 761a c63e
000002d0: 5a0d 4fbf 3081 503f 5eb7 6e3e 25d4 0fbf
000002e0: bb11 bfbd 129e 583d 7a29 a7be 6acf 92be
000002f0: d1d6 78bd c0e1 aa3d 4cbd 293f 5915 1d3f
00000300: c2b1 8bbc be84 80be 421b 5f3f 98bd 8b3e
00000310: 4088 39be ce20 3dbd 48df e2be 352f 0d3f
00000320: 5d47 673d 5d6c 06bf 160b ee3e f6ee 1c3d
00000330: 48cf 9fbe 349f fd3d 75da d1be 68ec f33e
00000340: 7b24 07bf e90a 513e 5730 47be 473c 79be
00000350: 3788 95bd 3d45 35bf f258 f13c c7ab 003f
00000360: 8f04 98be 8c44 8f3e cb2b 4a3f bf5e 93be
00000370: a3a0 e2be 4df0 8c3d d4de b43e 07ad 053e
00000380: 4be4 c9be 42ae 883e d630 af3e fc38 e4bd
00000390: 8eff 8b3f 40c9 b03d b4d6 c1be 5842 263f
000003a0: 8349 e9be f418 fe3d cfb1 023e ed59 05bb
000003b0: e332 3c3e 59bf 083e 15b0 ebbe 92d9 d83d
000003c0: 8b22 093f 916b 15bd 2c77 0d3d cc20 c73d
000003d0: 7346 00be 4c5e b83e f859 8ebd 4f5f 083e
000003e0: cbb9 c03e 94f5 18bf 1dee 5f3e bf03 a63e
000003f0: a3ee 8d3e f507 89bd 9786 9f3e f4d5 413f

tfl.pseudo_qconst i1 [32, 64]
-11 -27 -44 29 -44 5 -11 -39
-2 0 -30 3 13 -2 24 18
-127 -37 -42 -8 -29 -61 17 -63
-26 12 34 -37 6 -9 -28 -6
-14 -69 -15 -18 -23 11 16 -24
-25 0 -45 -6 -12 -16 38 21
-29 20 -20 3 28 -50 51 -59
-18 -4 -2 23 -42 -31 1 19
-18 30 -113 -13 -114 -20 68 14
68 23 9 48 -115 34 -69 62
-47 62 -103 -65 -120 65 47 -16
34 19 -62 -24 17 -79 -15 32
-17 -26 -64 -70 5 8 40 53
10 -22 -67 17 15 28 -38 -27
-36 32 -71 73 -34 42 -118 31
-109 -57 57 -127 20 8 -5 -24
-7 -67 29 -5 55 -41 4 2
-42 -77 18 -85 45 -35 -3 -26
37 -91 4 20 33 -113 -127 -12
-79 -103 -76 75 42 24 47 -78
-82 28 71 53 -1 -81 46 -11
-21 -17 -32 -86 -36 17 -55 -43
-109 -82 28 -9 -33 44 -66 -23
-92 62 -39 -35 -87 7 -118 1
20 22 -10 -20 62 -11 51 67
17 46 8 -76 30 -124 121 -7
-24 -43 87 40 33 41 51 19
6 -16 55 -38 6 -8 -37 -46
-59 -16 -21 -9 -21 68 2 -42
-16 24 35 3 -48 2 26 -11
1 44 84 -11 -23 23 18 -127
-47 -6 -59 59 -99 46 -7 -33
00000000: f5e5 d41d d405 f5d9 fe00 e203 0dfe 1812
00000010: 81db d6f8 e3c3 11c1 e60c 22db 06f7 e4fa
00000020: f2bb f1ee e90b 10e8 e700 d3fa f4f0 2615
00000030: e314 ec03 1cce 33c5 eefc fe17 d6e1 0113
00000040: ee1e 8ff3 8eec 440e 4417 0930 8d22 bb3e
00000050: d13e 99bf 8841 2ff0 2213 c2e8 11b1 f120
00000060: efe6 c0ba 0508 2835 0aea bd11 0f1c dae5
00000070: dc20 b949 de2a 8a1f 93c7 3981 1408 fbe8
00000080: f9bd 1dfb 37d7 0402 d6b3 12ab 2ddd fde6
00000090: 25a5 0414 218f 81f4 b199 b44b 2a18 2fb2
000000a0: ae1c 4735 ffaf 2ef5 ebef e0aa dc11 c9d5
000000b0: 93ae 1cf7 df2c bee9 a43e d9dd a907 8a01
000000c0: 1416 f6ec 3ef5 3343 112e 08b4 1e84 79f9
000000d0: e8d5 5728 2129 3313 06f0 37da 06f8 dbd2
000000e0: c5f0 ebf7 eb44 02d6 f018 2303 d002 1af5
000000f0: 012c 54f5 e917 1281 d1fa c53b 9d2e f9df

sequential_7_1/dense_24_1/MatMul i1 [64, 42]
17 3 -86 -5 -92 -68 -88 -17
-127 14 57 -35 -29 24 8 12
33 11 30 -36 -43 9 -35 8
16 27 87 -1 -68 13 -20 -4
18 -46 89 -33 -32 -8 -71 6
5 14 1 16 -23 23 -20 21
-19 8 -18 5 -5 15 4 17
22 17 72 -127 -3 12 0 14
-2 8 -12 -7 -2 11 1 11
-12 5 -13 -9 4 14 3 6
-7 8 -2 -8 32 24 10 18
5 -4 -12 1 -45 -5 2 -2
4 3 9 -9 27 -1 1 1
-10 11 -9 5 -12 -2 -10 1
-4 9 5 -9 -6 17 -8 7
-6 11 48 -116 49 127 7 -4
-5 28 -1 22 12 2 -7 9
-48 -15 16 11 25 7 29 1
-57 -10 -2 -4 35 35 -58 -127
-47 -12 -6 -3 26 -6 -55 2
-16 -15 -12 -1 17 13 14 7
-12 32 34 60 52 0 38 -25
127 -36 -25 23 -19 10 1 -5
-13 -32 6 5 -27 8 -3 8
-6 2 32 11 0 13 -45 27
-41 17 17 14 -28 -1 -26 -5
-103 19 54 -59 16 23 4 -4
-18 -18 28 -7 -63 -26 -59 21
-42 -1 -42 -69 -70 26 -25 23
54 37 55 -1 -49 -42 11 7
7 15 57 -5 -49 -127 -11 -95
5 29 -4 22 -34 41 63 -35
00000000: 1103 aafb a4bc a8ef 810e 39dd e318 080c
00000010: 210b 1edc d509 dd08 101b 57ff bc0d ecfc
00000020: 12d2 59df e0f8 b906 050e 0110 e917 ec15
00000030: ed08 ee05 fb0f 0411 1611 4881 fd0c 000e
00000040: fe08 f4f9 fe0b 010b f405 f3f7 040e 0306
00000050: f908 fef8 2018 0a12 05fc f401 d3fb 02fe
00000060: 0403 09f7 1bff 0101 f60b f705 f4fe f601
00000070: fc09 05f7 fa11 f807 fa0b 308c 317f 07fc
00000080: fb1c ff16 0c02 f909 d0f1 100b 1907 1d01
00000090: c7f6 fefc 2323 c681 d1f4 fafd 1afa c902
000000a0: f0f1 f4ff 110d 0e07 f420 223c 3400 26e7
000000b0: 7fdc e717 ed0a 01fb f3e0 0605 e508 fd08
000000c0: fa02 200b 000d d31b d711 110e e4ff e6fb
000000d0: 9913 36c5 1017 04fc eeee 1cf9 c1e6 c515
000000e0: d6ff d6bb ba1a e717 3625 37ff cfd6 0b07
000000f0: 070f 39fb cf81 f5a1 051d fc16 de29 3fdd
