raspy/model/keypoint_classifier/keypoint_classifier.tflite (tflite, 10192 bytes, 6 tensors)

arith.constant f4 [66]
0	0xbec7455f	-0.38920113
1	0xbe13cdce	-0.14433977
2	0xbdd8886f	-0.10572898
3	0xbdcef1f9	-0.10104746
4	0xbc45ac98	-0.012065075
5	0xbd988236	-0.07446711
6	0xbddf324c	-0.10898265
7	0xbe6b7192	-0.22992542
8	0xbe0175df	-0.1264262
9	0xbf1619fc	-0.586334
10	0x3ded9810	0.11601269
11	0xbe4a3614	-0.19747192
12	0xbeafdf59	-0.34350088
13	0xbf1af4e3	-0.6052992
14	0xbf07de54	-0.5307362
15	0x3e8f6838	0.280092
16	0xbef39c00	-0.47579956
17	0xbed863df	-0.42263696
18	0x3d7c6fec	0.061630175
19	0xbe8bef1c	-0.27330863
20	0xbe376c16	-0.17912325
21	0xbeef37bc	-0.4672221
22	0x3df14de8	0.117824376
23	0x3e0a37fd	0.1349792
24	0x3c223ca6	0.009902155
25	0xbea3a9d7	-0.31965515
26	0xbee2a0a0	-0.44263172
27	0xbe51282d	-0.20425482
28	0xbe134187	-0.14380465
29	0xbeff0ea7	-0.49815866
30	0xbe97a816	-0.29620427
31	0xbe04ad43	-0.12956719
32	0xbdc133b0	-0.09433687
33	0xbeb79f16	-0.3586356
34	0xbe1ec744	-0.15505701
35	0x3dd0fa7c	0.10204026
36	0xbeb638b5	-0.3559014
37	0xbeb4ebc5	-0.35336128
38	0xbde91dda	-0.11382647
39	0xbd343aaf	-0.044001278
40	0x3d967a8e	0.07347594
41	0xbe6fe743	-0.23428063
42	0x3e3aea5c	0.18253464
43	0xbd1f179c	-0.038840875
44	0xbebb6bdf	-0.36605737
45	0x3ea070b5	0.3133599
46	0xbe8e32d3	-0.2777315
47	0x3d2d7ca5	0.0423552
48	0xbd9e4a61	-0.077290304
49	0xbe6bf1ee	-0.23041508
50	0xbdd8c016	-0.105835125
51	0xbdec3234	-0.11533013
52	0xbe891017	-0.26770088
53	0x3e434468	0.19069064
54	0x3e7e2226	0.24817714
55	0xbe9654bc	-0.29361522
56	0x3d59b031	0.053146545
57	0x3ead60a2	0.33862787
58	0xbdc1c4fb	-0.09461399
59	0xbe90d12e	-0.2828459
60	0xbd6aa021	-0.057281617
61	0xbe928247	-0.2861502
62	0xbd8791f6	-0.06619637
63	0x3e3875fb	0.18013756
64	0xbe977ac9	-0.29585865
65	0xbe9ba8fd	-0.30402365

arith.constant1 f4 [33]
0	0xbe81f615	-0.25383058
1	0xbe73a892	-0.23794773
2	0x3eaab398	0.33340144
3	0x3ebf4a79	0.37361506
4	0x3e9b1b31	0.30294183
5	0x3c912a64	0.017720409
6	0xbe8530db	-0.26013836
7	0x3e6efa72	0.23337725
8	0x3ebc234c	0.3674568
9	0xbd30c0c5	-0.04315259
10	0xbec03d6e	-0.37546867
11	0x3dee34df	0.11631178
12	0xbe14f908	-0.14548123
13	0xbe5f4c13	-0.21806364
14	0xbe38b06f	-0.18036054
15	0xbe8a8447	-0.27054045
16	0x3ea8f13a	0.3299654
17	0xbe4cabad	-0.19987364
18	0x3ce93c1b	0.028471043
19	0x3d66830d	0.056277324
20	0x3dca8f2a	0.09890588
21	0x3ed8e559	0.42362478
22	0x3e29bd65	0.16576155
23	0x3e9baea6	0.30406684
24	0xbdcc3246	-0.099705264
25	0x3e84625a	0.25856286
26	0xbc958aec	-0.01825472
27	0x3f1e5ce9	0.6186052
28	0x3e2e17a1	0.17001201
29	0x3e780a84	0.24222761
30	0x3bf4bbd7	0.0074686813
31	0x3ece44d3	0.40286884
32	0xbef42798	-0.47686458

arith.constant2 f4 [11]
0	0x3e95931d	0.292138
1	0xbe0b47fe	-0.13601682
2	0xbe7d4430	-0.24733043
3	0xbecc9cc3	-0.3996335
4	0x3ea16e83	0.31529626
5	0x3ddfa825	0.10920743
6	0xbda54bfe	-0.08071135
7	0x3c95ef5d	0.018302614
8	0xbf015354	-0.50517774
9	0x3e98529d	0.2975053
10	0x3ebd84e6	0.37015456

arith.constant3 f4 [11, 33]
0	0xbf3badeb	-0.7331225
1	0x3eb1bba6	0.34713477
2	0x3ed94af7	0.42440006
3	0xbf7ca514	-0.9868939
4	0xbf0b4a6d	-0.5441044
5	0x3e99b53d	0.30021086
6	0xbf08deb4	-0.5346482
7	0xbed9f0ba	-0.42566472
8	0xbf64753f	-0.89241403
9	0x3ecc765a	0.39934045
10	0xbef1ae50	-0.47203302
11	0xbeb3ffae	-0.35156006
12	0x3e82c10c	0.25537908
13	0xbe8f3af1	-0.27974656
14	0xbf5d528e	-0.86454093
15	0xbfc4ab3d	-1.5364758
16	0x3ea2a5f8	0.3176725
17	0x3ea996dd	0.33122912
18	0xbecaa74e	-0.39580768
19	0xbf91bd07	-1.1385812
20	0xbf3baa8e	-0.7330712
21	0x3ebec702	0.37261206
22	0xbf4e743f	-0.8064613
23	0xbde058bf	-0.10954427
24	0xbf2607c1	-0.6485558
25	0x3e98c4d9	0.29837683
26	0xbf478611	-0.77938944
27	0x3ee7e076	0.45288438
28	0x3f1e69ac	0.6187999
29	0x3f11a8a3	0.56897944
30	0xbf0620ab	-0.523936
31	0xbf47138a	-0.7776419
32	0x3d8ab475	0.06772701
33	0x3dc00e09	0.09377677
34	0xbe95da28	-0.29268003
35	0xbf553924	-0.83290315
36	0xbe89232a	-0.2678464
37	0xbf71b241	-0.9441262
38	0xbef58d89	-0.47959545
39	0xbf682f86	-0.90697515
40	0x3dd403ce	0.10352288
41	0x3e8d18ba	0.27557927
42	0xbf39e242	-0.7261087
43	0xbd73567a	-0.059408642
44	0x3eaf21b7	0.3420541
45	0xbedda084	-0.43286526
46	0x3ef568a2	0.4793139
47	0x3ec5b4f1	0.3861461
48	0xbb6866cf	-0.003546167
49	0xbf8dde11	-1.1083394
50	0xbf3400fb	-0.70313996
51	0x3e6ad541	0.22932912
52	0xbf4f1da1	-0.80904585
53	0x3f069e06	0.52584875
54	0xbf84a7b7	-1.0363683
55	0x3e1c584a	0.15268055
56	0x3e76b905	0.24094017
57	0xbed323dc	-0.41238296
58	0xbf327aa1	-0.69718367
59	0x3ec11703	0.3771287
60	0xbf81f38e	-1.0152452
61	0xbf1c2554	-0.6099446
62	0xbf2768be	-0.653942
63	0xbf23d4c7	-0.6399655
64	0x3eba25ce	0.36356968
65	0x3dea2294	0.114323765
66	0xbdf9e4ac	-0.12201819
67	0x3f119d81	0.56880957
68	0xbea249f0	-0.31697035
69	0xbe82374b	-0.2543281
70	0x3dc2271b	0.09480115
71	0xbe99bdbf	-0.30027577
72	0x3e5e2770	0.21694732
73	0x3d20efea	0.0392913
74	0x3eb8b5ff	0.36076352
75	0x3e93501a	0.2877205
76	0xbf190d78	-0.59786177
77	0x3ee263e8	0.44216847
78	0x3ea6b589	0.32560375
79	0x3e9a8f07	0.30187246
80	0x3e815e1a	0.25267106
81	0x3e43202c	0.19055241
82	0x3ebae241	0.36500743
83	0xbe8ee4f7	-0.2790906
84	0xbf0e9011	-0.5568858
85	0xbe8f572c	-0.27996194
86	0xbed0ad27	-0.40757105
87	0x3ebfdb08	0.37471795
88	0xbf0ed6dd	-0.55796605
89	0x3e59f3cc	0.21284407
90	0xbeaacca1	-0.33359244
91	0xbf57a15e	-0.842306
92	0x3e88401b	0.2661141
93	0xbf513746	-0.81724966
94	0x3d6c02d5	0.05761989
95	0x3e44a661	0.19204094
96	0xbecf60d3	-0.4050356
97	0xbe5146fa	-0.20437232
98	0x3ec3f6d3	0.3827425
99	0x3d3ce2d2	0.04611475
100	0xbf4fceee	-0.81175125
101	0x3eb69a4d	0.35664597
102	0xbe5a1db8	-0.213004
103	0x3c2d17e9	0.010564783
104	0x3e99fb29	0.30074432
105	0xbc9cba7a	-0.019131888
106	0x3ea35e6a	0.3190797
107	0xbed40abe	-0.41414446
108	0xbf070282	-0.527382
109	0x3ea59857	0.3234279
110	0xbed66983	-0.41877374
111	0x3cd431ba	0.025902618
112	0x3e7e5cab	0.24840038
113	0x3ec29cdc	0.380103
114	0x3e9dbbae	0.3080725
115	0xbf44e494	-0.7691128
116	0x3ebc24e9	0.3674691
117	0x3dc929b0	0.098224044
118	0x3ea37ab8	0.31929564
119	0x3e229dd7	0.15880524
120	0xbe9c1d5f	-0.30491158
121	0x3dc33248	0.09531075
122	0x3d5dfa64	0.05419387
123	0x3eff4b3b	0.49862084
124	0xbecbebc0	-0.398283
125	0x3e50aca4	0.20378357
126	0xbf3248bc	-0.69642234
127	0xbe9bbcda	-0.3041752
128	0xbeb3fab0	-0.35152197
129	0x3e0cfd23	0.13768439
130	0xbe8ef44c	-0.2792076
131	0xbcb0f592	-0.021601472
132	0x3dd41e52	0.10357346
133	0xbf2a474e	-0.6651505
134	0x3f01845f	0.5059261
135	0xbed99f12	-0.42504174
136	0xbeec7447	-0.46182463
137	0xbf5ac93a	-0.854633
138	0x3dce5936	0.100756094
139	0xbf6ffa2a	-0.93741095
140	0x3e5dbbc9	0.21653666
141	0xbe12be04	-0.14330298
142	0x3eb7ec00	0.3592224
143	0xbe807860	-0.2509184
144	0xbdf33b0b	-0.11876496
145	0xbf8a870f	-1.0822467
146	0x3ee898d3	0.45429096
147	0x3eb0900b	0.34484896
148	0xbf6ad257	-0.91727203
149	0x3eaf22b8	0.34206176
150	0xbdd2464b	-0.102673136
151	0x3ea90db6	0.33018273
152	0x3ed4c321	0.41555122
153	0xbf504f39	-0.81370884
154	0xbfc33a63	-1.5252193
155	0xbf330636	-0.6993135
156	0x3f0f9171	0.560813
157	0xbf25ad78	-0.6471782
158	0xbf38a26d	-0.7212284
159	0xbf4cb7c4	-0.79967904
160	0x3e28b513	0.16475324
161	0xbede51cc	-0.4342178
162	0xbfab389f	-1.3376654
163	0xbe8bba73	-0.27290687
164	0xbee605af	-0.4492621
165	0xbf9837bc	-1.1892009
166	0xbee4e502	-0.4470597
167	0x3efc2092	0.492436
168	0x3eacdde6	0.33763045
169	0x3ea9eb55	0.33187357
170	0xbf795360	-0.97392845
171	0xbf2580b4	-0.6464951
172	0x3efbf041	0.49206737
173	0x3dea02dc	0.11426327
174	0xbd1dc0e5	-0.038514037
175	0x3dfbe664	0.12299803
176	0x3e3e2802	0.1856995
177	0xbfafd6d4	-1.3737435
178	0xbec2ac45	-0.38022056
179	0x3e7964cc	0.24354857
180	0xbf16d204	-0.5891421
181	0x3e80b54e	0.25138324
182	0xbe7d3ec6	-0.24730977
183	0xbf5ca242	-0.86185086
184	0x3eb304fa	0.34964734
185	0xbd2eb6d3	-0.042654824
186	0x3b068440	0.0020525604
187	0x3d2f3484	0.042774692
188	0x3eec1a5b	0.46113858
189	0x3f0b220c	0.54348826
190	0xbe0bbfbf	-0.13647364
191	0x3df8618c	0.121279806
192	0x3e5aa318	0.21351278
193	0x3f810278	1.0078878
194	0xbe41031a	-0.1884884
195	0x3e3d1f35	0.18468936
196	0xbe923fa6	-0.28564185
197	0xbf9feb7d	-1.249374
198	0x3d7ea506	0.062169097
199	0xbe37c108	-0.1794473
200	0xbd063b59	-0.032771442
201	0x3e9c8fab	0.3057836
202	0xbd054a9b	-0.032541852
203	0x3ea3f7a5	0.32024875
204	0x3e5f70d1	0.2182038
205	0x3e8de1a7	0.27711222
206	0xbf0c5bb7	-0.54827446
207	0xbf23fe46	-0.64059865
208	0xbe6848d9	-0.22684039
209	0xbf1ec6d3	-0.6202213
210	0x3e217567	0.15767442
211	0x3e9cca3e	0.3062305
212	0xbf482683	-0.78183764
213	0x3e76d7a7	0.24105702
214	0xbf0e349c	-0.55549026
215	0x3e8b8eb4	0.2725731
216	0x3eb1c99a	0.34724122
217	0xbeab2544	-0.3342687
218	0xbeaa9099	-0.33313444
219	0xbb9a5495	-0.00470979
220	0x3e866794	0.262509
221	0xbe2ae186	-0.16687593
222	0xbfaada12	-1.33478
223	0x3ebeba43	0.3725148
224	0xbe1fd26b	-0.15607612
225	0x3d808ca8	0.06276828
226	0xbf2c3ee1	-0.67283446
227	0x3eb3ae26	0.35093802
228	0x3eac0148	0.33594728
229	0x3e5670c1	0.2094145
230	0x3ed4c5bf	0.41557118
231	0x3e77669c	0.24160236
232	0x3eaa06d2	0.33208328
233	0x3eb804ab	0.3594106
234	0xbf1f990e	-0.6234292
235	0xbf52998e	-0.82265556
236	0x3ea31249	0.31849888
237	0x3d998164	0.074953824
238	0xbf750b0f	-0.9572
239	0xbf48d176	-0.7844461
240	0xbd2fc6fd	-0.04291438
241	0xbedaf2b7	-0.42763302
242	0xbe51e80b	-0.20498674
243	0x3eb51be3	0.35372838
244	0x3d48f5a6	0.049062394
245	0xba8097e5	-0.0009810893
246	0x3c4b777d	0.012418625
247	0xbe84630b	-0.25856814
248	0x3ea31dd6	0.318587
249	0x3f1c3751	0.61021906
250	0xbf6eea31	-0.933261
251	0xbe970dd4	-0.29502738
252	0x3eb35cbe	0.35031694
253	0xbec7039d	-0.38869944
254	0xbec6745d	-0.38760653
255	0xbfa7f1dc	-1.3120685

tfl.pseudo_qconst i1 [33, 66]
0	0x3c	60
1	0xfd	-3
2	0x1f	31
3	0x0d	13
4	0xf5	-11
5	0xfd	-3
6	0x09	9
7	0xf2	-14
8	0x31	49
9	0x23	35
10	0x02	2
11	0xed	-19
12	0x09	9
13	0x08	8
14	0x1d	29
15	0xef	-17
16	0x10	16
17	0x11	17
18	0xc1	-63
19	0x08	8
20	0x2a	42
21	0x38	56
22	0x0d	13
23	0xf5	-11
24	0x58	88
25	0x15	21
26	0x32	50
27	0x06	6
28	0x33	51
29	0x1f	31
30	0x07	7
31	0xf7	-9
32	0x0d	13
33	0xf6	-10
34	0x7f	127
35	0xe6	-26
36	0x17	23
37	0x04	4
38	0x08	8
39	0x06	6
40	0x01	1
41	0xe7	-25
42	0xf0	-16
43	0x0d	13
44	0x0c	12
45	0xef	-17
46	0x07	7
47	0xf6	-10
48	0x5f	95
49	0x33	51
50	0xf6	-10
51	0x0f	15
52	0xec	-20
53	0xe9	-23
54	0xdb	-37
55	0x32	50
56	0x07	7
57	0xe7	-25
58	0x51	81
59	0x22	34
60	0x0c	12
61	0x3a	58
62	0xe8	-24
63	0x06	6
64	0xe6	-26
65	0xfa	-6
66	0x13	19
67	0x07	7
68	0xd6	-42
69	0x00	0
70	0x14	20
71	0x36	54
72	0x24	36
73	0xc9	-55
74	0xe2	-30
75	0x27	39
76	0x16	22
77	0x0c	12
78	0x1d	29
79	0x21	33
80	0x24	36
81	0xe9	-23
82	0x18	24
83	0x2c	44
84	0xd2	-46
85	0x3c	60
86	0xf4	-12
87	0x03	3
88	0xf3	-13
89	0xc8	-56
90	0xc2	-62
91	0xf7	-9
92	0x0e	14
93	0x5a	90
94	0xf6	-10
95	0x78	120
96	0x26	38
97	0x38	56
98	0xd7	-41
99	0x0f	15
100	0xdc	-36
101	0xe6	-26
102	0x25	37
103	0xf1	-15
104	0x31	49
105	0x0d	13
106	0x23	35
107	0x51	81
108	0xfb	-5
109	0xf4	-12
110	0x7f	127
111	0xd0	-48
112	0x38	56
113	0xba	-70
114	0xb5	-75
115	0xee	-18
116	0xdb	-37
117	0xd5	-43
118	0xe0	-32
119	0xfe	-2
120	0x08	8
121	0x37	55
122	0xda	-38
123	0xdf	-33
124	0xed	-19
125	0x01	1
126	0xeb	-21
127	0xfd	-3
128	0xf3	-13
129	0xfd	-3
130	0x57	87
131	0x24	36
132	0x13	19
133	0x16	22
134	0x2f	47
135	0x2b	43
136	0xd4	-44
137	0x11	17
138	0xc0	-64
139	0x01	1
140	0x2f	47
141	0xf3	-13
142	0xfc	-4
143	0x1e	30
144	0x03	3
145	0xdc	-36
146	0xe9	-23
147	0x2d	45
148	0x11	17
149	0xb2	-78
150	0x30	48
151	0xe9	-23
152	0x4f	79
153	0xf9	-7
154	0x99	-103
155	0x57	87
156	0xc5	-59
157	0x22	34
158	0xf6	-10
159	0xd9	-39
160	0x21	33
161	0x03	3
162	0xe6	-26
163	0x27	39
164	0xb7	-73
165	0xcc	-52
166	0x23	35
167	0x1b	27
168	0xcb	-53
169	0x33	51
170	0x19	25
171	0xd9	-39
172	0x19	25
173	0xb6	-74
174	0x54	84
175	0xfe	-2
176	0xc3	-61
177	0x1c	28
178	0x06	6
179	0xbd	-67
180	0x3c	60
181	0x10	16
182	0xf7	-9
183	0x7f	127
184	0x73	115
185	0xfa	-6
186	0x38	56
187	0xfb	-5
188	0xd4	-44
189	0x0b	11
190	0xd2	-46
191	0xdd	-35
192	0xd2	-46
193	0xf1	-15
194	0x73	115
195	0xea	-22
196	0xc4	-60
197	0xd0	-48
198	0x09	9
199	0x00	0
200	0xe3	-29
201	0xcb	-53
202	0xb3	-77
203	0xcf	-49
204	0xc9	-55
205	0x76	118
206	0x01	1
207	0xee	-18
208	0x56	86
209	0xff	-1
210	0xb8	-72
211	0xde	-34
212	0xfd	-3
213	0xfc	-4
214	0x0b	11
215	0xeb	-21
216	0x14	20
217	0xd5	-43
218	0xf5	-11
219	0xe7	-25
220	0x0e	14
221	0xf1	-15
222	0x32	50
223	0xce	-50
224	0xf0	-16
225	0x11	17
226	0x14	20
227	0xbe	-66
228	0xe7	-25
229	0xe1	-31
230	0x37	55
231	0xfe	-2
232	0x0a	10
233	0x1c	28
234	0xfc	-4
235	0xc3	-61
236	0xdf	-33
237	0xeb	-21
238	0x19	25
239	0xdd	-35
240	0x04	4
241	0x17	23
242	0xa7	-89
243	0xda	-38
244	0x08	8
245	0x7b	123
246	0x81	-127
247	0x00	0
248	0x48	72
249	0xe6	-26
250	0xe3	-29
251	0xdf	-33
252	0x00	0
253	0xe2	-30
254	0x36	54
255	0xd7	-41

sequential_2_1/dense_6_1/MatMul i1 [66, 42]
0	0xdb	-37
1	0x28	40
2	0x1e	30
3	0x0b	11
4	0x00	0
5	0xf2	-14
6	0xf6	-10
7	0x04	4
8	0xf9	-7
9	0xff	-1
10	0x06	6
11	0xef	-17
12	0xf8	-8
13	0xfb	-5
14	0xfa	-6
15	0xfa	-6
16	0xfc	-4
17	0x01	1
18	0x0d	13
19	0xff	-1
20	0xf4	-12
21	0x11	17
22	0x09	9
23	0xfa	-6
24	0x1e	30
25	0x08	8
26	0x00	0
27	0xf7	-9
28	0xfb	-5
29	0xfc	-4
30	0x06	6
31	0x02	2
32	0x1a	26
33	0x0b	11
34	0xff	-1
35	0x19	25
36	0xfa	-6
37	0x08	8
38	0x2a	42
39	0x81	-127
40	0xcb	-53
41	0xaf	-81
42	0x13	19
43	0x05	5
44	0xc6	-58
45	0x2a	42
46	0xb7	-73
47	0x17	23
48	0x9e	-98
49	0x1a	26
50	0x81	-127
51	0x02	2
52	0xe9	-23
53	0x05	5
54	0xfd	-3
55	0xfd	-3
56	0x2b	43
57	0x04	4
58	0x2e	46
59	0xf3	-13
60	0x03	3
61	0x07	7
62	0x03	3
63	0xfb	-5
64	0x17	23
65	0x00	0
66	0x07	7
67	0x00	0
68	0xf8	-8
69	0x0a	10
70	0x06	6
71	0x08	8
72	0x32	50
73	0x00	0
74	0x36	54
75	0x10	16
76	0x0b	11
77	0x0d	13
78	0xff	-1
79	0x01	1
80	0x2b	43
81	0xf8	-8
82	0x30	48
83	0x03	3
84	0x2c	44
85	0x0c	12
86	0x18	24
87	0x7f	127
88	0x21	33
89	0x45	69
90	0x26	38
91	0x49	73
92	0x05	5
93	0x4c	76
94	0xee	-18
95	0x15	21
96	0x0b	11
97	0x0e	14
98	0x0b	11
99	0x0e	14
100	0x11	17
101	0xea	-22
102	0xee	-18
103	0x11	17
104	0xf5	-11
105	0xdf	-33
106	0xf7	-9
107	0x87	-121
108	0xad	-83
109	0x06	6
110	0xf6	-10
111	0x1c	28
112	0x01	1
113	0xef	-17
114	0xd7	-41
115	0xc3	-61
116	0xe3	-29
117	0x15	21
118	0xf1	-15
119	0x1b	27
120	0xec	-20
121	0x06	6
122	0x30	48
123	0xef	-17
124	0xf1	-15
125	0x1e	30
126	0xe4	-28
127	0xdf	-33
128	0xe7	-25
129	0x27	39
130	0xe8	-24
131	0x06	6
132	0xc4	-60
133	0xf5	-11
134	0x81	-127
135	0x16	22
136	0x23	35
137	0x0f	15
138	0x18	24
139	0x04	4
140	0xf8	-8
141	0x01	1
142	0xfa	-6
143	0xff	-1
144	0x08	8
145	0x07	7
146	0x04	4
147	0x0b	11
148	0x20	32
149	0xfb	-5
150	0x01	1
151	0x04	4
152	0xfd	-3
153	0x14	20
154	0x15	21
155	0xf8	-8
156	0x2d	45
157	0xdf	-33
158	0x23	35
159	0x24	36
160	0xe6	-26
161	0x01	1
162	0x3a	58
163	0xf4	-12
164	0x1f	31
165	0x00	0
166	0x2f	47
167	0x04	4
168	0xe4	-28
169	0xff	-1
170	0xde	-34
171	0x7f	127
172	0xc8	-56
173	0x45	69
174	0xd1	-47
175	0x2a	42
176	0xfa	-6
177	0x4f	79
178	0xf5	-11
179	0xf8	-8
180	0x05	5
181	0x0d	13
182	0xfe	-2
183	0x18	24
184	0xea	-22
185	0x12	18
186	0xef	-17
187	0xee	-18
188	0xf9	-7
189	0x05	5
190	0x02	2
191	0x21	33
192	0xf0	-16
193	0x0e	14
194	0x06	6
195	0xd4	-44
196	0xe5	-27
197	0x06	6
198	0x0b	11
199	0x0c	12
200	0xef	-17
201	0x11	17
202	0x4d	77
203	0xd0	-48
204	0x24	36
205	0xfd	-3
206	0x2f	47
207	0xfd	-3
208	0x1a	26
209	0xf4	-12
210	0xd2	-46
211	0xbc	-68
212	0xb1	-79
213	0xba	-70
214	0xa9	-87
215	0x8a	-118
216	0xbf	-65
217	0xb4	-76
218	0x93	-109
219	0xdd	-35
220	0x79	121
221	0xc6	-58
222	0x43	67
223	0x27	39
224	0xd6	-42
225	0x29	41
226	0xc6	-58
227	0x27	39
228	0x7f	127
229	0x82	-126
230	0x18	24
231	0x2c	44
232	0xec	-20
233	0x0a	10
234	0xc8	-56
235	0x15	21
236	0x37	55
237	0x00	0
238	0xe9	-23
239	0x12	18
240	0x22	34
241	0xfc	-4
242	0xec	-20
243	0xb7	-73
244	0x54	84
245	0x52	82
246	0x15	21
247	0x51	81
248	0xd5	-43
249	0x2e	46
250	0x10	16
251	0x1a	26
252	0x0a	10
253	0xd5	-43
254	0x30	48
255	0x6b	107
